ACM_converted_full_integer_model.tflite (tflite, 13664 bytes, 4 tensors)

sequential/dense_3/MatMul i1 [1, 16] scale=0.0017928348 zero_point=0
-0.010757009 0.04482087 0.0824704 0.028685357 0.0017928348 0.0071713394 0.0017928348 -0.012549844
-0.039442368 0.0053785043 0.032271028 -0.05199221 0.021514017 0.22769003 0.043028034 0.0071713394
00000000: fa19 2e10 0104 01f9 ea03 12e3 0c7f 1804

sequential/dense_2/MatMul i1 [16, 24] scale=0.020012757 zero_point=0
-0.26016584 0.22014032 0.48030615 0.1801148 -0.12007654 0.12007654 0.30019134 -0.06003827
0.5403444 0.22014032 0.44028065 0.58036995 0.7804975 -0.08005103 0.100063786 0.08005103
-0.2801786 -0.100063786 -0.100063786 0.2801786 0.6203955 0.0 -0.100063786 0.3602296
-0.42026788 0.1400893 0.08005103 -0.22014032 0.3602296 0.1400893 0.020012757 -0.08005103
-0.06003827 -0.12007654 0.12007654 1.0806888 -0.26016584 0.2801786 0.22014032 -0.040025514
0.20012757 0.12007654 0.08005103 -0.6404082 -0.5603572 0.44028065 -0.06003827 -0.3202041
0.1801148 -0.68043375 -0.4602934 0.100063786 0.20012757 -0.5603572 -0.34021688 0.24015307
-0.40025514 -0.26016584 -0.22014032 -0.44028065 -0.38024238 0.34021688 0.1801148 -0.4602934
0.12007654 0.1801148 0.06003827 -0.48030615 -0.34021688 0.24015307 -0.34021688 -0.22014032
-0.3202041 -0.3202041 0.2801786 -0.1400893 0.1400893 -0.3602296 0.12007654 -0.1801148
-0.100063786 -0.34021688 0.26016584 0.5203317 0.24015307 0.3602296 0.20012757 0.24015307
0.20012757 -0.50031894 0.48030615 0.1400893 -0.7804975 0.68043375 -0.44028065 -0.24015307
-0.30019134 0.24015307 0.48030615 0.30019134 -0.22014032 0.38024238 0.1801148 0.24015307
0.1801148 0.2801786 0.22014032 0.3202041 -0.040025514 -0.06003827 0.040025514 -0.22014032
-0.20012757 -0.42026788 -0.3602296 0.4602934 0.08005103 -0.20012757 -0.020012757 0.30019134
-0.40025514 -0.20012757 -0.1400893 -0.100063786 -0.08005103 0.06003827 -0.5403444 0.3202041
-0.30019134 0.26016584 -0.5203317 0.22014032 -0.24015307 0.6404082 0.48030615 -0.2801786
0.0 0.38024238 0.100063786 -0.48030615 -0.22014032 -0.12007654 -0.38024238 -0.38024238
-0.3602296 0.1801148 0.20012757 -0.1801148 0.20012757 -0.22014032 -0.08005103 -0.22014032
-0.24015307 -0.2801786 -0.06003827 -0.7004465 -0.08005103 0.22014032 0.42026788 0.30019134
0.2801786 0.1400893 0.100063786 0.08005103 -0.20012757 0.6003827 -0.26016584 -0.2801786
-0.26016584 0.26016584 0.5603572 0.20012757 -0.12007654 0.06003827 0.100063786 0.12007654
0.5603572 0.1801148 0.40025514 0.42026788 0.76048476 0.06003827 0.08005103 -0.08005103
-0.24015307 -0.3202041 0.0 0.4602934 0.66042095 -0.020012757 -0.12007654 0.38024238
-0.22014032 0.42026788 0.84053576 0.12007654 -0.3602296 0.740472 0.6203955 0.1400893
0.5403444 -0.08005103 0.42026788 0.68043375 0.48030615 -0.44028065 -0.06003827 0.34021688
-0.20012757 -0.12007654 0.020012757 0.9606123 0.40025514 -0.4602934 0.5403444 0.42026788
-0.1801148 0.22014032 -0.020012757 -0.08005103 -0.040025514 -0.2801786 0.1801148 0.040025514
0.24015307 0.16010205 -0.020012757 0.100063786 -0.12007654 -0.06003827 0.0 -0.30019134
-0.1400893 -0.34021688 0.08005103 0.040025514 -0.100063786 0.06003827 0.0 0.08005103
-1.4409184 0.06003827 -0.2801786 0.2801786 -0.1400893 -0.1801148 -0.08005103 0.3602296
-0.68043375 0.16010205 -0.5603572 0.38024238 -0.44028065 -0.6404082 -0.12007654 -0.08005103
00000000: f30b 1809 fa06 0ffd 1b0b 161d 27fc 0504
00000010: f2fb fb0e 1f00 fb12 eb07 04f5 1207 01fc
00000020: fdfa 0636 f30e 0bfe 0a06 04e0 e416 fdf0
00000030: 09de e905 0ae4 ef0c ecf3 f5ea ed11 09e9
00000040: 0609 03e8 ef0c eff5 f0f0 0ef9 07ee 06f7
00000050: fbef 0d1a 0c12 0a0c 0ae7 1807 d922 eaf4
00000060: f10c 180f f513 090c 090e 0b10 fefd 02f5
00000070: f6eb ee17 04f6 ff0f ecf6 f9fb fc03 e510
00000080: f10d e60b f420 18f2 0013 05e8 f5fa eded
00000090: ee09 0af7 0af5 fcf5 f4f2 fddd fc0b 150f
000000a0: 0e07 0504 f61e f3f2 f30d 1c0a fa03 0506
000000b0: 1c09 1415 2603 04fc f4f0 0017 21ff fa13
000000c0: f515 2a06 ee25 1f07 1bfc 1522 18ea fd11
000000d0: f6fa 0130 14e9 1b15 f70b fffc fef2 0902
000000e0: 0c08 ff05 fafd 00f1 f9ef 0402 fb03 0004
000000f0: b803 f20e f9f7 fc12 de08 e413 eae0 fafc

sequential/dense_1/MatMul i1 [24, 48] scale=0.019289842 zero_point=0
1.0030718 -1.0030718 0.038579684 0.6944343 0.019289842 0.15431874 1.0030718 0.09644921
-0.4629562 0.733014 -0.19289842 -0.5401156 0.8294632 -0.15431874 1.2345499 -0.6944343
-1.2538397 0.48224604 0.81017333 -0.019289842 1.2345499 0.15431874 -1.1766803 0.5015359
0.94520223 0.733014 -0.75230384 0.84875304 -0.61727494 0.07715937 0.28934762 0.019289842
-0.17360857 -0.7715937 0.48224604 0.71372414 0.733014 -0.38579684 0.733014 1.2731296
0.4629562 1.7553756 -0.15431874 -0.6365648 -0.17360857 0.38579684 1.1573905 0.8680429
-0.8294632 -1.3117093 0.38579684 -0.19289842 -0.34721714 0.1350289 -0.28934762 0.28934762
0.0 -0.2314781 -0.7715937 -1.3309991 -0.30863747 -0.28934762 -0.34721714 -1.8904045
0.2314781 -0.40508667 0.34721714 0.057869524 -0.6751445 -0.28934762 -0.17360857 -1.466028
0.84875304 -0.32792732 -0.42437652 -0.07715937 0.0 0.38579684 -1.6589264 -0.98378193
0.32792732 -0.5594054 0.11573905 -0.75230384 0.2314781 0.057869524 -0.6751445 -1.9675639
-0.2314781 -0.25076795 0.40508667 0.5979851 -1.5046077 0.2314781 -0.2314781 -0.09644921
-0.2314781 0.19289842 0.733014 -0.09644921 -0.34721714 -0.40508667 -0.71372414 -0.6751445
-0.32792732 -0.019289842 -0.19289842 0.038579684 0.038579684 0.48224604 -1.1188108 -0.5401156
0.34721714 -0.8294632 -0.25076795 1.1766803 -0.5979851 -0.019289842 -0.2314781 -0.6365648
0.32792732 -1.1573905 0.15431874 -1.4081584 0.40508667 -0.52082574 -0.81017333 -0.7715937
-0.40508667 0.44366637 0.2700578 -0.019289842 -0.366507 -1.1573905 -0.5594054 0.25076795
0.057869524 0.42437652 0.057869524 0.2314781 -0.71372414 0.15431874 0.25076795 0.15431874
-0.019289842 -0.19289842 -0.19289842 0.15431874 0.057869524 -0.15431874 0.0 -0.07715937
-0.057869524 -0.17360857 -0.09644921 -0.21218826 0.17360857 -0.07715937 0.25076795 -0.15431874
0.0 0.11573905 0.038579684 -0.038579684 -0.038579684 -0.52082574 -0.07715937 -0.019289842
-0.038579684 -0.07715937 -0.07715937 -0.2700578 0.019289842 0.038579684 0.21218826 -0.15431874
0.07715937 -0.019289842 -0.15431874 0.25076795 0.09644921 0.17360857 0.11573905 -0.17360857
-0.1350289 0.19289842 -0.5015359 0.07715937 0.2314781 -0.019289842 -0.11573905 -0.21218826
-0.733014 -0.88733274 -0.8294632 0.0 -0.038579684 0.11573905 0.21218826 0.52082574
-0.5979851 0.038579684 -0.30863747 -0.07715937 -0.40508667 1.1381006 0.4629562 -0.21218826
0.17360857 0.019289842 0.5401156 -0.7715937 0.8680429 0.21218826 -1.5046077 0.0
0.88733274 -0.38579684 0.2700578 1.3117093 0.057869524 0.19289842 0.038579684 -0.8680429
0.88733274 -0.11573905 -0.038579684 0.75230384 0.038579684 -0.38579684 0.94520223 0.5594054
-0.11573905 -0.2314781 0.09644921 0.75230384 0.30863747 0.11573905 1.2345499 0.366507
0.30863747 -0.15431874 0.1350289 0.2700578 -0.38579684 0.366507 0.9644921 0.34721714
-0.038579684 -0.5401156 -0.11573905 -0.019289842 -0.21218826 -0.30863747 0.32792732 -0.40508667
00000000: 34cc 0224 0108 3405 e826 f6e4 2bf8 40dc
00000010: bf19 2aff 4008 c31a 3126 d92c e004 0f01
00000020: f7d8 1925 26ec 2642 185b f8df f714 3c2d
00000030: d5bc 14f6 ee07 f10f 00f4 d8bb f0f1 ee9e
00000040: 0ceb 1203 ddf1 f7b4 2cef eafc 0014 aacd
00000050: 11e3 06d9 0c03 dd9a f4f3 151f b20c f4fb
00000060: f40a 26fb eeeb dbdd efff f602 0219 c6e4
00000070: 12d5 f33d e1ff f4df 11c4 08b7 15e5 d6d8
00000080: eb17 0eff edc4 e30d 0316 030c db08 0d08
00000090: fff6 f608 03f8 00fc fdf7 fbf5 09fc 0df8
000000a0: 0006 02fe fee5 fcff fefc fcf2 0102 0bf8
000000b0: 04ff f80d 0509 06f7 f90a e604 0cff faf5
000000c0: dad2 d500 fe06 0b1b e102 f0fc eb3b 18f5
000000d0: 0901 1cd8 2d0b b200 2eec 0e44 030a 02d3
000000e0: 2efa fe27 02ec 311d faf4 0527 1006 4013
000000f0: 10f8 070e ec13 3212 fee4 faff f5f0 11eb

sequential/dense/MatMul i1 [48, 169] scale=0.049075074 zero_point=0
0.14722523 0.1963003 0.3926006 0.1963003 0.24537537 0.14722523 -0.049075074 -0.1963003
-0.09815015 0.8833513 1.0796516 0.7361261 0.68705106 0.0 0.09815015 0.24537537
-0.1963003 -0.24537537 -0.7361261 -0.34352553 -0.3926006 -0.1963003 0.29445046 0.7852012
0.24537537 0.34352553 -0.09815015 0.049075074 0.24537537 -0.24537537 -0.68705106 -0.68705106
-0.049075074 0.83427626 0.0 -0.1963003 0.49075073 0.0 -0.29445046 0.0
0.049075074 0.44167566 0.0 0.1963003 0.1963003 0.9324264 0.049075074 -0.1963003
0.09815015 1.5704024 0.29445046 0.29445046 -0.14722523 -0.049075074 0.7361261 -0.5889009
-1.0305766 -0.29445046 0.049075074 0.0 -0.68705106 -0.637976 0.14722523 0.637976
0.0 -0.09815015 0.0 0.34352553 -0.83427626 -0.34352553 -0.3926006 -0.34352553
-0.049075074 -0.1963003 -0.44167566 -0.5889009 0.1963003 0.09815015 -0.3926006 -0.14722523
0.5889009 0.7852012 0.5889009 0.34352553 0.3926006 0.83427626 0.5889009 0.29445046
0.1963003 -0.5398258 -0.637976 -0.44167566 -0.7361261 0.34352553 0.8833513 0.5398258
-0.1963003 -0.09815015 -0.14722523 -0.7361261 -0.83427626 -0.24537537 -0.68705106 -0.5398258
-0.1963003 -0.29445046 0.14722523 0.49075073 0.34352553 -0.09815015 -0.24537537 -1.325027
-1.8157778 -0.5398258 0.5398258 0.44167566 0.3926006 0.09815015 0.34352553 0.7361261
-0.5398258 -0.09815015 0.24537537 0.24537537 -0.29445046 -0.24537537 0.14722523 0.49075073
0.44167566 0.049075074 0.24537537 0.29445046 1.4722522 0.49075073 0.14722523 0.049075074
0.29445046 0.5398258 0.68705106 0.98150146 0.83427626 0.68705106 0.637976 -0.049075074
-0.049075074 0.7361261 0.14722523 0.0 -0.09815015 -0.24537537 -0.1963003 0.09815015
0.14722523 0.24537537 0.09815015 0.0 -0.24537537 -0.34352553 0.049075074 -0.3926006
-0.1963003 -0.14722523 -0.1963003 -0.29445046 -0.34352553 -0.34352553 -0.049075074 -0.3926006
-0.049075074 -0.3926006 -0.44167566 0.0 0.1963003 0.34352553 0.14722523 0.1963003
0.3926006 0.3926006 0.3926006 0.09815015 -0.34352553 -0.24537537 -0.09815015 -0.09815015
-0.44167566 0.1963003 0.049075074 0.049075074 -0.09815015 0.049075074 0.1963003 0.1963003
0.29445046 -0.09815015 -0.049075074 0.09815015 -0.5398258 -0.7361261 0.0 0.44167566
0.1963003 0.049075074 0.637976 0.68705106 0.7361261 -0.049075074 -0.8833513 -0.29445046
0.34352553 0.24537537 0.3926006 0.29445046 0.24537537 -0.14722523 -0.44167566 0.29445046
0.9324264 0.8833513 0.9324264 0.637976 0.34352553 -0.1963003 -0.49075073 -0.049075074
-0.637976 -0.1963003 -0.44167566 -0.24537537 0.14722523 0.34352553 -0.1963003 -0.14722523
-0.5398258 0.049075074 0.09815015 0.0 1.325027 0.24537537 0.049075074 0.1963003
0.637976 0.44167566 -0.1963003 0.3926006 0.5889009 -0.29445046 -0.09815015 -0.09815015
0.29445046 0.5398258 -0.24537537 -0.049075074 0.049075074 0.24537537 -0.049075074 -0.637976
00000000: 0304 0804 0503 fffc fe12 160f 0e00 0205
00000010: fcfb f1f9 f8fc 0610 0507 fe01 05fb f2f2
00000020: ff11 00fc 0a00 fa00 0109 0004 0413 01fc
00000030: 0220 0606 fdff 0ff4 ebfa 0100 f2f3 030d
00000040: 00fe 0007 eff9 f8f9 fffc f7f4 0402 f8fd
00000050: 0c10 0c07 0811 0c06 04f5 f3f7 f107 120b
00000060: fcfe fdf1 effb f2f5 fcfa 030a 07fe fbe5
00000070: dbf5 0b09 0802 070f f5fe 0505 fafb 030a
00000080: 0901 0506 1e0a 0301 060b 0e14 110e 0dff
00000090: ff0f 0300 fefb fc02 0305 0200 fbf9 01f8
000000a0: fcfd fcfa f9f9 fff8 fff8 f700 0407 0304
000000b0: 0808 0802 f9fb fefe f704 0101 fe01 0404
000000c0: 06fe ff02 f5f1 0009 0401 0d0e 0fff eefa
000000d0: 0705 0806 05fd f706 1312 130d 07fc f6ff
000000e0: f3fc f7fb 0307 fcfd f501 0200 1b05 0104
000000f0: 0d09 fc08 0cfa fefe 060b fbff 0105 fff3
